_________________________________________________________________
Layer (type)                 Output Shape              Param #   
=================================================================
input_1 (InputLayer)         (None, 3, 900, 900)       0         
_________________________________________________________________
conv1_1 (Conv2D)             (None, 64, 898, 898)      1792      
_________________________________________________________________
conv1_2 (Conv2D)             (None, 64, 896, 896)      36928     
_________________________________________________________________
pool1 (MaxPooling2D)         (None, 64, 448, 448)      0         
_________________________________________________________________
conv2_1 (Conv2D)             (None, 128, 446, 446)     73856     
_________________________________________________________________
conv2_2 (Conv2D)             (None, 128, 444, 444)     147584    
_________________________________________________________________
pool2 (MaxPooling2D)         (None, 128, 222, 222)     0         
_________________________________________________________________
conv3_1 (Conv2D)             (None, 256, 220, 220)     295168    
_________________________________________________________________
conv3_2 (Conv2D)             (None, 256, 218, 218)     590080    
_________________________________________________________________
conv3_3 (Conv2D)             (None, 256, 216, 216)     590080    
_________________________________________________________________
pool3 (MaxPooling2D)         (None, 256, 108, 108)     0         
_________________________________________________________________
conv4_1 (Conv2D)             (None, 512, 106, 106)     1180160   
_________________________________________________________________
conv4_2 (Conv2D)             (None, 512, 104, 104)     2359808   
_________________________________________________________________
conv4_3 (Conv2D)             (None, 512, 102, 102)     2359808   
_________________________________________________________________
conv5_1 (Conv2D)             (None, 512, 98, 98)       2359808   
_________________________________________________________________
conv5_2 (Conv2D)             (None, 512, 94, 94)       2359808   
_________________________________________________________________
conv5_3 (Conv2D)             (None, 512, 90, 90)       2359808   
_________________________________________________________________
fc6 (Conv2D)                 (None, 4096, 66, 66)      102764544 
_________________________________________________________________
drop6 (Dropout)              (None, 4096, 66, 66)      0         
_________________________________________________________________
fc7 (Conv2D)                 (None, 4096, 66, 66)      16781312  
_________________________________________________________________
drop7 (Dropout)              (None, 4096, 66, 66)      0         
_________________________________________________________________
fc-final (Conv2D)            (None, 21, 66, 66)        86037     
_________________________________________________________________
zero_padding2d_1 (ZeroPaddin (None, 21, 132, 132)      0         
_________________________________________________________________
ct_conv1_1 (Conv2D)          (None, 42, 130, 130)      7980      
_________________________________________________________________
ct_conv1_2 (Conv2D)          (None, 42, 128, 128)      15918     
_________________________________________________________________
ct_conv2_1 (Conv2D)          (None, 84, 124, 124)      31836     
_________________________________________________________________
ct_conv3_1 (Conv2D)          (None, 168, 116, 116)     127176    
_________________________________________________________________
ct_conv4_1 (Conv2D)          (None, 336, 100, 100)     508368    
_________________________________________________________________
ct_conv5_1 (Conv2D)          (None, 672, 68, 68)       2032800   
_________________________________________________________________
ct_fc1 (Conv2D)              (None, 672, 66, 66)       4064928   
_________________________________________________________________
ct_final (Conv2D)            (None, 21, 66, 66)        14133     
_________________________________________________________________
permute_1 (Permute)          (None, 66, 66, 21)        0         
_________________________________________________________________
reshape_1 (Reshape)          (None, 4356, 21)          0         
_________________________________________________________________
activation_1 (Activation)    (None, 4356, 21)          0         
_________________________________________________________________
reshape_2 (Reshape)          (None, 66, 66, 21)        0         
_________________________________________________________________
permute_2 (Permute)          (None, 21, 66, 66)        0         
=================================================================
Total params: 141,149,720
Trainable params: 141,149,720
Non-trainable params: 0
_________________________________________________________________
conv_margin =  186
input dims  (1, 3, 900, 900)
############################################
############################################
############################################
…
