_________________________________________________________________
Layer (type)                 Output Shape              Param #   
=================================================================
input_1 (InputLayer)         (None, 3, 600, 600)       0         
_________________________________________________________________
conv1_1 (Conv2D)             (None, 32, 598, 598)      896       
_________________________________________________________________
conv1_2 (Conv2D)             (None, 32, 596, 596)      9248      
_________________________________________________________________
pool1 (MaxPooling2D)         (None, 32, 298, 298)      0         
_________________________________________________________________
conv2_1 (Conv2D)             (None, 64, 296, 296)      18496     
_________________________________________________________________
conv2_2 (Conv2D)             (None, 64, 294, 294)      36928     
_________________________________________________________________
conv2_3 (Conv2D)             (None, 128, 292, 292)     73856     
_________________________________________________________________
pool2 (MaxPooling2D)         (None, 128, 146, 146)     0         
_________________________________________________________________
dilation1_1 (Conv2D)         (None, 128, 138, 138)     409728    
_________________________________________________________________
dilation1_2 (Conv2D)         (None, 128, 114, 114)     802944    
_________________________________________________________________
drop1 (Dropout)              (None, 128, 114, 114)     0         
_________________________________________________________________
fc7 (Conv2D)                 (None, 512, 114, 114)     66048     
_________________________________________________________________
drop2 (Dropout)              (None, 512, 114, 114)     0         
_________________________________________________________________
dilation2_1 (Conv2D)         (None, 84, 94, 94)        1075284   
_________________________________________________________________
dilation2_2 (Conv2D)         (None, 84, 74, 74)        176484    
_________________________________________________________________
dilation2_3 (Conv2D)         (None, 84, 66, 66)        63588     
_________________________________________________________________
logits (Conv2D)              (None, 21, 66, 66)        1785      
_________________________________________________________________
permute_1 (Permute)          (None, 66, 66, 21)        0         
_________________________________________________________________
reshape_1 (Reshape)          (None, 4356, 21)          0         
_________________________________________________________________
activation_1 (Activation)    (None, 4356, 21)          0         
=================================================================
Total params: 2,735,285
Trainable params: 2,735,285
Non-trainable params: 0
_________________________________________________________________
(291, 600, 600, 3) done
(291, 91476)
reached
weight loaded
